{"format": "torch", "nodes": [{"name": "encoder", "id": 47545072222736, "class_name": "DimeNetPlusPlusWrap(\n  (rbf): BesselBasisLayer(\n    (envelope): Envelope()\n  )\n  (sbf): SphericalBasisLayer(\n    (envelope): Envelope()\n  )\n  (emb): EmbeddingBlock(\n    (emb): Embedding(95, 128)\n    (lin_rbf): Linear(in_features=6, out_features=128, bias=True)\n    (lin): Linear(in_features=384, out_features=128, bias=True)\n  )\n  (output_blocks): ModuleList(\n    (0-4): 5 x OutputPPBlock(\n      (lin_rbf): Linear(in_features=6, out_features=128, bias=False)\n      (lin_up): Linear(in_features=128, out_features=256, bias=True)\n      (lins): ModuleList(\n        (0-2): 3 x Linear(in_features=256, out_features=256, bias=True)\n      )\n      (lin): Linear(in_features=256, out_features=256, bias=False)\n    )\n  )\n  (interaction_blocks): ModuleList(\n    (0-3): 4 x InteractionPPBlock(\n      (lin_rbf1): Linear(in_features=6, out_features=8, bias=False)\n      (lin_rbf2): Linear(in_features=8, out_features=128, bias=False)\n      (lin_sbf1): Linear(in_features=42, out_features=8, bias=False)\n      (lin_sbf2): Linear(in_features=8, out_features=64, bias=False)\n      (lin_kj): Linear(in_features=128, out_features=128, bias=True)\n      (lin_ji): Linear(in_features=128, out_features=128, bias=True)\n      (lin_down): Linear(in_features=128, out_features=64, bias=False)\n      (lin_up): Linear(in_features=64, out_features=128, bias=False)\n      (layers_before_skip): ModuleList(\n        (0): ResidualLayer(\n          (lin1): Linear(in_features=128, out_features=128, bias=True)\n          (lin2): Linear(in_features=128, out_features=128, bias=True)\n        )\n      )\n      (lin): Linear(in_features=128, out_features=128, bias=True)\n      (layers_after_skip): ModuleList(\n        (0-1): 2 x ResidualLayer(\n          (lin1): Linear(in_features=128, out_features=128, bias=True)\n          (lin2): Linear(in_features=128, out_features=128, bias=True)\n        )\n      )\n    )\n  )\n)", "parameters": [["rbf.freq", [6]], ["emb.emb.weight", [95, 128]], ["emb.lin_rbf.weight", [128, 6]], ["emb.lin_rbf.bias", [128]], ["emb.lin.weight", [128, 384]], ["emb.lin.bias", [128]], ["output_blocks.0.lin_rbf.weight", [128, 6]], ["output_blocks.0.lin_up.weight", [256, 128]], ["output_blocks.0.lin_up.bias", [256]],
…
s_name": "Linear(in_features=256, out_features=100, bias=True)", "parameters": [["weight", [100, 256]], ["bias", [100]]], "output_shape": [[301, 100]], "num_parameters": [25600, 100]}, {"name": "decoder", "id": 47545054447760, "class_name": "GemNetTDecoder(\n  (gemnet): GemNetT(\n    (radial_basis): RadialBasis(\n      (envelope): PolynomialEnvelope()\n      (rbf): GaussianSmearing()\n    )\n    (cbf_basis3): CircularBasisLayer(\n      (radial_basis): RadialBasis(\n        (envelope): PolynomialEnvelope()\n        (rbf): GaussianSmearing()\n      )\n    )\n    (mlp_rbf3): Dense(\n      (linear): Linear(in_features=128, out_features=16, bias=False)\n      (_activation): Identity()\n    )\n    (mlp_cbf3): EfficientInteractionDownProjection()\n    (mlp_rbf_h): Dense(\n      (linear): Linear(in_features=128, out_features=16, bias=False)\n      (_activation): Identity()\n    )\n    (mlp_rbf_out): Dense(\n      (linear): Linear(in_features=128, out_features=16, bias=False)\n      (_activation): Identity()\n    )\n    (atom_emb): AtomEmbedding(\n      (embeddings): Embedding(100, 128)\n    )\n    (atom_latent_emb): Linear(in_features=384, out_features=128, bias=True)\n    (edge_emb): EdgeEmbedding(\n      (dense): Dense(\n        (linear): Linear(in_features=384, out_features=128, bias=False)\n        (_activation): ScaledSiLU(\n          (_activation): SiLU()\n        )\n      )\n    )\n    (out_blocks): ModuleList(\n      (0-3): 4 x OutputBlock(\n        (dense_rbf): Dense(\n          (linear): Linear(in_features=16, out_features=128, bias=False)\n          (_activation): Identity()\n        )\n        (scale_sum): ScalingFactor()\n        (layers): ModuleList(\n          (0): Dense(\n            (linear): Linear(in_features=128, out_features=128, bias=False)\n            (_activation): ScaledSiLU(\n              (_activation): SiLU()\n            )\n          )\n          (1-3): 3 x ResidualLayer(\n            (dense_mlp): Sequential(\n              (0): Dense(\n                (linear): Linear(in_features=128, out_features=128, bias=False)\n                (_activation): ScaledSiLU(\n                  (_activation): SiLU()\n                )\n              )\n              (1): Dense(\n                (linear): Linear(in_features=128, out_features=128, bias=False)\n                (_activation): ScaledSiLU(\n                  (_activation): SiLU()\n                )\n              )\n            )\n          )\n        )\n        (seq_energy): ModuleList(\n          (0): Dense(\n            (linear): Linear(in_features=128, out_features=128, bias=False)\n            (_activation): ScaledSiLU(\n              (_activation): SiLU()\n            )\n          )\n          (1-3): 3 x ResidualLayer(\n            (dense_mlp): Sequential(\n              (0): Dense(\n                (linear): Linear(in_features=128, out_features=128, bias=False)\n                (_activation): ScaledSiLU(\n                  (_activation): SiLU()\n                )\n              )\n              (1): Dense(\n                (linear): Linear(in_features=128, out_features=128, bias=False)\n                (_activation): ScaledSiLU(\n                  (_activation): SiLU()\n                )\n              )\n            )\n          )\n        )\n        (out_energy): Dense(\n          (linear): Linear(in_features=128, out_features=1, bias=False)\n          (_activation): Identity()\n        )\n        (scale_rbf_F): ScalingFactor()\n        (seq_forces): ModuleList(\n          (0): Dense(\n            (linear): Linear(in_features=128, out_features=128, bias=False)\n            (_activation): ScaledSiLU(\n              (_activation): SiLU()\n            )\n          )\n          (1-3): 3 x ResidualLayer(\n            (dense_mlp): Sequential(\n              (0): Dense(\n                (linear): Linear(in_features=128, out_features=128, bias=False)\n                (_activation): ScaledSiLU(\n                  (_activation): SiLU()\n                )\n              )\n              (1): Dense(\n                (linear): Linear(in_features=128, out_features=128, bias=False)\n                (_activation): ScaledSiLU(\n                  (_activation): SiLU()\n                )\n              )\n            )\n          )\n        )\n        (out_forces): Dense(\n          (linear): Linear(in_features=128, out_features=1, bias=False)\n          (_activation): Identity()\n        )\n        (dense_rbf_F): Dense(\n          (linear): Linear(in_features=16, out_features=128, bias=False)\n          (_activation): Identity()\n        )\n      )\n    )\n    (int_blocks): ModuleList(\n      (0-2): 3 x InteractionBlockTripletsOnly(\n        (dense_ca): Dense(\n          (linear): Linear(in_features=128, out_features=128, bias=False)\n          (_activation): ScaledSiLU(\n            (_activation): SiLU()\n          )\n        )\n        (trip_interaction): TripletInteraction(\n          (dense_ba): Dense(\n            (linear): Linear(in_features=128, out_features=128, bias=False)\n            (_activation): ScaledSiLU(\n              (_activation): SiLU()\n            )\n          )\n          (mlp_rbf): Dense(\n            (linear): Linear(in_features=16, out_features=128, bias=False)\n            (_activation): Identity()\n          )\n          (scale_rbf): ScalingFactor()\n          (mlp_cbf): EfficientInteractionBilinear()\n          (scale_cbf_sum): ScalingFactor()\n          (down_projection): Dense(\n            (linear): Linear(in_features=128, out_features=64, bias=False)\n            (_activation): ScaledSiLU(\n              (_activation): SiLU()\n            )\n          )\n          (up_projection_ca): Dense(\n            (linear): Linear(in_features=64, out_features=128, bias=False)\n            (_activation): ScaledSiLU(\n              (_activation): SiLU()\n            )\n          )\n          (up_projection_ac): Dense(\n            (linear): Linear(in_features=64, out_features=128, bias=False)\n            (_activation): ScaledSiLU(\n              (_activation): SiLU()\n            )\n          )\n        )\n        (layers_before_skip): ModuleList(\n          (0): ResidualLayer(\n            (dense_mlp): Sequential(\n              (0): Dense(\n                (linear): Linear(in_features=128, out_features=128, bias=False)\n                (_activation): ScaledSiLU(\n                  (_activation): SiLU()\n                )\n              )\n              (1): Dense(\n                (linear): Linear(in_features=128, out_features=128, bias=False)\n                (_activation): ScaledSiLU(\n                  (_activation): SiLU()\n                )\n              )\n            )\n          )\n        )\n        (layers_after_skip): ModuleList(\n          (0-1): 2 x ResidualLayer(\n            (dense_mlp): Sequential(\n              (0): Dense(\n                (linear): Linear(in_features=128, out_features=128, bias=False)\n                (_activation): ScaledSiLU(\n                  (_activation): SiLU()\n                )\n              )\n              (1): Dense(\n                (linear): Linear(in_features=128, out_features=128, bias=False)\n                (_activation): ScaledSiLU(\n                  (_activation): SiLU()\n                )\n              )\n            )\n          )\n        )\n        (atom_update): AtomUpdateBlock(\n          (dense_rbf): Dense(\n            (linear): Linear(in_features=16, out_features=128, bias=False)\n            (_activation): Identity()\n          )\n          (scale_sum): ScalingFactor()\n          (layers): ModuleList(\n            (0): Dense(\n              (linear): Linear(in_features=128, out_features=128, bias=False)\n              (_activation): ScaledSiLU(\n                (_activation): SiLU()\n              )\n            )\n            (1-3): 3 x ResidualLayer(\n              (dense_mlp): Sequential(\n                (0): Dense(\n                  (linear): Linear(in_features=128, out_features=128, bias=False)\n                  (_activation): ScaledSiLU(\n                    (_activation): SiLU()\n                  )\n                )\n                (1): Dense(\n                  (linear): Linear(in_features=128, out_features=128, bias=False)\n                  (_activation): ScaledSiLU(\n                    (_activation): SiLU()\n                  )\n                )\n              )\n            )\n          )\n        )\n        (concat_layer): EdgeEmbedding(\n          (dense): Dense(\n            (linear): Linear(in_features=384, out_features=128, bias=False)\n            (_activation): ScaledSiLU(\n              (_activation): SiLU()\n            )\n          )\n        )\n        (residual_m): ModuleList(\n          (0): ResidualLayer(\n            (dense_mlp): Sequential(\n              (0): Dense(\n                (linear): Linear(in_features=128, out_features=128, bias=False)\n                (_activation): ScaledSiLU(\n                  (_activation): SiLU()\n                )\n              )\n              (1): Dense(\n                (linear): Linear(in_features=128, out_features=128, bias=False)\n                (_activation): ScaledSiLU(\n                  (_activation): SiLU()\n                )\n              )\n            )\n          )\n        )\n      )\n    )\n  )\n  (fc_atom): Linear(in_features=128, out_features=100, bias=True)\n)", "parameters": [["gemnet.mlp_rbf3.linear.weight", [16, 128]], ["gemnet.mlp_cbf3.weight", [7, 128, 16]], ["gemnet.mlp_rbf_h.linear.weight", [16, 128]], ["gemnet.mlp_rbf_out.linear.weight", [16, 128]], ["gemnet.atom_emb.embeddings.weight", [100, 128]], ["gemnet.atom_latent_emb.weight", [128, 384]], ["gemnet.atom_latent_emb.bias", [128]], ["gemnet.edg
…
